…
nf=True, show_labels=True, simplify=True, single_cls=False, source=None, split=val, stream_buffer=False, task=detect, time=None, tracker=botsort.yaml, translate=0.1, val=True, verbose=True, vid_stride=1, visualize=False, warmup_bias_lr=0.1, warmup_epochs=3.0, warmup_momentum=0.8, weight_decay=0.0005, workers=8, workspace=None\n",
            "Overriding model.yaml nc=80 with nc=10\n",
            "\n",
            "                   from  n    params  module                                       arguments                     \n",
            "  0                  -1  1      1856  ultralytics.nn.modules.conv.Conv             [3, 64, 3, 2]                 \n",
            "  1                  -1  1     73984  ultralytics.nn.modules.conv.Conv             [64, 128, 3, 2]               \n",
            "  2                  -1  1    212864  ultralytics.nn.modules.block.RepNCSPELAN4    [128, 256, 128, 64, 1]        \n",
            "  3                  -1  1    164352  ultralytics.nn.modules.block.ADown           [256, 256]                    \n",
            "  4                  -1  1    847616  ultralytics.nn.modules.block.RepNCSPELAN4    [256, 512, 256, 128, 1]       \n",
            "  5                  -1  1    656384  ultralytics.nn.modules.block.ADown           [512, 512]                    \n",
            "  6                  -1  1   2857472  ultralytics.nn.modules.block.RepNCSPELAN4    [512, 512, 512, 256, 1]       \n",
            "  7                  -1  1    656384  ultralytics.nn.modules.block.ADown           [512, 512]                    \n",
            "  8                  -1  1   2857472  ultralytics.nn.modules.block.RepNCSPELAN4    [512, 512, 512, 256, 1]       \n",
            "  9                  -1  1    656896  ultralytics.nn.modules.block.SPPELAN         [512, 512, 256]               \n",
            " 10                  -1  1         0  torch.nn.modules.upsampling.Upsample         [None, 2, 'nearest']          \n",
            " 11             [-1, 6]  1         0  ultralytics.nn.modules.conv.Concat           [1]                           \n",
            " 12                  -1  1   3119616  ultralytics.nn.modules.block.RepNCSPELAN4    [1024, 512, 512, 256, 1]      \n",
            " 13                  -1  1         0  torch.nn.modules.upsampling.Upsample         [None, 2, 'nearest']          \n",
            " 14             [-1, 4]  1         0  ultralytics.nn.modules.conv.Concat           [1]                           \n",
            " 15                  -1  1    912640  ultralytics.nn.modules.block.RepNCSPELAN4    [1024, 256, 256, 128, 1]      \n",
            " 16                  -1  1    164352  ultralytics.nn.modules.block.ADown           [256, 256]                    \n",
            " 17            [-1, 12]  1         0  ultralytics.nn.modules.conv.Concat           [1]                           \n",
            " 18                  -1  1   2988544  ultralytics.nn.modules.block.RepNCSPELAN4    [768, 512, 512, 256, 1]       \n",
            " 19                  -1  1    656384  ultralytics.nn.modules.block.ADown           [512, 512]                    \n",
            " 20             [-1, 9]  1         0  ultralytics.nn.modules.conv.Concat           [1]                           \n",
            " 21                  -1  1   3119616  ultralytics.nn.modules.block.RepNCSPELAN4    [1024, 512, 512, 256, 1]      \n",
            " 22        [15, 18, 21]  1   5590510  ultralytics.nn.modules.head.Detect           [10, [256, 512, 512]]         \n",
            "YOLOv9c summary: 358 layers, 25,536,942 parameters, 25,536,926 gradients, 103.7 GFLOPs\n",
            "\n",
            "Transferred 931/937 items from pretrained weights\n",
            "Freezing layer 'model.22.dfl.conv.weight'\n",
            "\u001b[34m\u001b[1mAMP: \u001b[0mrunning Automatic Mixed Precision (AMP) checks...\n",
            "\u001b[34m\u001b[1mAMP: \u001b[0mchecks passed \n",
…
